Lab2/problem 1/neural-network-1.pth (torch, 10042 bytes, 6 tensors)

weight f4 [32, 8]
-0.17176805 0.8829252 -1.6302004 1.2585728 2.9790776 -0.48015875 -0.023193859 0.23517853
-0.48562548 -0.18252416 0.28882837 -0.43568444 -0.31240982 1.4864854 0.12693629 -2.3225722
0.8549965 0.90984136 0.13574827 0.9212828 0.8721858 1.2947613 -0.8918425 -0.6302374
-0.007590269 -2.166217 0.73046917 -1.255117 2.162208 -0.054261878 -0.009773415 0.16804236
0.27906933 -0.1958364 1.3780346 -1.2987791 3.8500834 -0.051876657 -0.15190837 -0.27424785
-0.30470833 -5.109476 -0.49094674 2.7591996 -0.16633323 -0.941892 0.9959554 1.2431443
-0.1920825 -0.29249844 -0.41502675 -1.5636216 1.4328648 0.42962685 -0.0025767542 -0.15885209
-0.16710603 -0.57656986 0.010168846 -0.6134449 0.37289977 1.4673324 0.23739278 -2.3712733
0.3815077 -0.2490436 0.31933424 -1.0585507 -0.8376806 -1.3435737 -1.7903498 0.26921034
0.4309842 0.0748136 -0.6126654 -0.94310975 0.7777868 -1.6383138 -2.1089308 0.34224164
-0.63940144 0.23344254 1.0621399 0.39057535 0.1508195 0.83919257 0.09572435 -1.8106611
0.27316797 -0.9960295 -0.4084135 -1.3312993 -0.7068487 -1.0205812 -0.3487397 0.22789472
-0.21165302 0.21744867 -0.569455 1.4054186 0.7661369 0.9556266 -1.5297698 0.3628569
0.32809338 -0.053197723 -0.9556371 -3.730075 -0.56850994 0.26142016 -0.9902573 0.024911908
-0.17443854 0.8040891 1.2481657 -0.82390374 -0.7245035 -0.16121054 -0.2813743 -0.33053893
0.42620617 1.944426 0.2341866 -2.2825305 -2.0760248 0.44332054 -0.716596 -0.27585214
-1.2059251 -0.83918005 -0.3507193 -1.2686938 0.42113236 0.26738837 0.061247762 0.3225554
-0.5963072 0.511852 0.30963174 0.13177809 0.3514738 0.83642566 1.2943068 -0.6420142
-0.18216635 -0.67197806 0.052345023 -0.70775497 1.0305479 0.96178913 0.46385053 0.9514662
0.21753234 0.49099407 0.732598 1.2303497 1.8142812 0.17572421 -0.79636407 -1.0752248
0.24213062 -0.313223 -0.19098042 -0.5381687 -0.81385285 -1.3615746 0.6419064 1.2561162
1.7377938 -0.8575784 1.0258338 -0.81579316 0.010897166 0.33593327 -0.9123663 0.060980476
-0.1800342 0.052005533 1.8904604 -0.8620414 -0.60112566 3.0767393 0.91855395 0.9921726
-0.24774878 1.54538 -0.5586917 -0.33300033 -1.0573939 1.7245399 0.0050269663 -0.5852299
-0.4264532 0.11650754 0.45965725 -0.8623888 0.3355153 -2.2980053 -1.2575512 0.12419839
-0.13786101 0.889413 -0.36490303 -1.4433151 -0.657199 0.6606801 -0.1258861 -0.122927524
-0.12139499 1.7081441 -0.29056653 -0.530989 -0.7593963 0.92980057 -0.26748177 -0.09202306
0.0049889633 0.08638888 0.6299592 -1.2511011 -0.5427613 -1.0706848 -3.068268 1.1133028
-0.11254796 -0.041341987 0.2931743 -0.73556423 0.6767469 0.8091723 0.76429254 0.9501504
-0.07458264 -0.9676661 0.23862642 -0.88833153 0.9289411 0.83812445 0.45418966 0.58343786
0.111568704 -0.1406932 0.1625858 0.2703426 0.026203966 0.009087602 0.07152358 -0.18417098
0.6346368 0.5349003 0.8206319 -0.022726618 -0.27898875 0.92361647 0.8940737 -2.1071675
00000000: f7e3 2fbe 6307 623f 68aa d0bf ea18 a13f
00000010: 35a9 3e40 5ed7 f5be 0c01 bebc a4d2 703e
00000020: e7a3 f8be 9de7 3abe 50e1 933e 0812 dfbe
00000030: 2ef4 9fbe 2745 be3f 96fb 013e 06a5 14c0
00000040: 0de1 5a3f 5deb 683f 9801 0b3e 31d9 6b3f
00000050: 9247 5f3f bdba a53f ca4f 64bf 3d57 21bf
00000060: cbb7 f8bb 4da3 0ac0 0700 3b3f ada7 a0bf
00000070: 9e61 0a40 b441 5ebd ac20 20bc 4c13 2c3e
00000080: 2de2 8e3e 5689 48be 7063 b03f 653e a6bf
00000090: c467 7640 9e7c 54bd de8d 1bbe 376a 8cbe
000000a0: bb02 9cbe d480 a3c0 5f5d fbbe ba96 3040
000000b0: 4253 2abe d61f 71bf eff6 7e3f 5a1f 9f3f
000000c0: 46b1 44be 5bc2 95be 637e d4be c124 c8bf
000000d0: 1d68 b73f 0df8 db3e c3de 28bb 1faa 22be
000000e0: d81d 2bbe 159a 13bf 3b9b 263c ba0a 1dbf
000000f0: b8ec be3e 8cd1 bb3f 1817 733e f1c2 17c0
00000100: fa54 c33e 4905 7fbe c77f a33e 977e 87bf
00000110: 3c72 56bf 39fa abbf 2f2a e5bf f0d5 893e
00000120: f6a9 dc3e df37 993d a4d7 1cbf a46f 71bf
00000130: 091d 473f 44b4 d1bf b9f8 06c0 4c3a af3e
00000140: d0af 23bf 900b 6f3e 33f4 873f 7ef9 c73e
00000150: 6d70 1a3e 53d5 563f 210b c43d bec3 e7bf
00000160: acdc 8b3e cafb 7ebf 931b d1be 0468 aabf
00000170: 09f4 34bf 68a2 82bf 038e b2be 3c5d 693e
00000180: 92bb 58be ddaa 5e3e cec7 11bf c2e4 b33f
00000190: 8c21 443f f2a3 743f 7fcf c3bf 61c8 b93e
000001a0: dbfb a73e dbe5 59bd a2a4 74bf 8cb9 6ec0
000001b0: de89 11bf ddd8 853e 8181 7dbf 0f14 cc3c
000001c0: 04a0 32be c9d8 4d3f e5c3 9f3f 5beb 52bf
000001d0: 1079 39bf 6014 25be 4b10 90be 663c a9be
000001e0: b237 da3e f3e2 f83f 9dce 6f3e fb14 12c0
000001f0: 97dd 04c0 e9fa e23e d672 37bf 7e3c 8dbe
00000200: c15b 9abf 81d4 56bf 7b91 b3be 8f64 a2bf
00000210: a99e d73e 21e7 883e efde 7a3d fb25 a53e
00000220: 97a7 18bf bc08 033f 0d88 9e3e d6f0 063e
00000230: 60f4 b33e fe1f 563f d8ab a53f 0b5b 24bf
00000240: d189 3abe c106 2cbf bc67 563d 6e2f 35bf
00000250: fee8 833f d037 763f d17d ed3e 4a93 733f
00000260: ccc0 5e3e 9363 fb3e 8b8b 3b3f 197c 9d3f
00000270: 5e3a e83f 0cf1 333e 84de 4bbf f7a0 89bf
00000280: 17f1 773e c45e a0be 5f90 43be 6dc5 09bf
00000290: a958 50bf 1448 aebf fa53 243f 6ac8 a03f
000002a0: 0770 de3f 428a 5bbf 864e 833f d2d7 50bf
000002b0: 078a 323c 72ff ab3e d690 69bf aac6 793d
000002c0: e35a 38be c103 553d 9bfa f13f bfae 5cbf
000002d0: 5fe3 19bf 4ce9 4440 5a26 6b3f 06ff 7d3f
000002e0: dbb1 7dbe 03cf c53f 6b06 0fbf 057f aabe
000002f0: af58 87bf b9bd dc3f 40b9 a43b a0d1 15bf
00000300: 1358 dabe 819b ee3d 3258 eb3e 83c5 5cbf
00000310: a9c8 ab3e 8512 13c0 70f7 a0bf ba5b fe3d
00000320: 702b 0dbe 92b0 633f 92d4 babe 8dbe b8bf
00000330: 323e 28bf 5522 293f 49e8 00be 6dc1 fbbd
00000340: f09d f8bd 77a4 da3f 23c5 94be e5ee 07bf
00000350: cc67 42bf 6907 6e3f 5ff3 88be 9676 bcbd
00000360: 757a a33b a7ec b03d 0245 213f 1524 a0bf
00000370: 68f2 0abf 330c 89bf 815e 44c0 b580 8e3f
00000380: 8b7f e6bd 3756 29bd f11a 963e f04d 3cbf
00000390: 493f 2d3f ea25 4f3f ada8 433f 0e3d 733f
000003a0: c8be 98bd f7b8 77bf 7c5a 743e b269 63bf
000003b0: 15cf 6d3f 538f 563f 8c8b e83e 2f5c 153f
000003c0: 227e e43d e111 10be e47c 263e 586a 8a3e
000003d0: b3a9 d63c 2ae4 143c f47a 923d 5197 3cbe
000003e0: 8f77 223f 3aef 083f ef14 523f 2c2d babc
000003f0: 9dd7 8ebe 2172 6c3f 04e2 643f d5db 06c0

bias f4 [32]
0.7033276 0.409972 0.21198373 0.024560995 0.403464 0.678968 0.9983398 0.15728393
-0.5746826 -1.2042397 0.29955435 -0.52288514 -1.3099965 -0.0071436637 1.8142464 0.943668
-0.4251755 -0.75874436 -0.037150584 -0.82021606 -0.18888435 0.10896214 1.2914673 1.4773449
0.5732274 0.9554203 1.308769 -0.95629525 -0.22498104 0.15785117 -0.30982405 -0.36980703
00000000: 470d 343f dae7 d13e 4312 593e 2434 c93c
00000010: d592 ce3e d9d0 2d3f 3293 7f3f 0a0f 213e
00000020: 661e 13bf 8724 9abf 305f 993e cddb 05bf
00000030: f7ad a7bf 6515 eabb 3a39 e83f 3a94 713f
00000040: 9ab0 d9be 123d 42bf 362b 18bd aef9 51bf
00000050: e66a 41be 8b27 df3d cd4e a53f a319 bd3f
00000060: 08bf 123f 6d96 743f be85 a73f c4cf 74bf
00000070: 6e61 66be bda3 213e 42a1 9ebe 5957 bdbe

weight f4 [32, 32]
1.7958032 1.2141517 0.22087301 -0.79600513 -1.2424462 -2.5191336 0.98892105 0.65062463
0.6215466 2.1313193 0.17126532 0.030298673 1.2777256 -0.37604764 -0.1250378 0.27571133
0.49694693 0.7698274 1.0213896 -1.4542031 0.14512432 0.9565439 -0.76786655 -0.342345
0.058378037 -0.04245131 -0.23067647 1.5795258 0.7784249 0.93948716 -0.05192699 0.38014272
1.5939548 0.81495124 0.44996923 -0.9056449 -1.5461246 -0.9880903 1.1628428 0.8927641
0.8937434 1.2620243 0.32763487 0.39736876 1.8847814 -1.0122197 -0.39673486 -0.23645045
0.84678 1.4170607 0.8042467 -1.2811604 0.2319353 0.808776 0.36431625 0.36462483
-0.29988462 0.64294547 0.5049346 1.0571858 0.72521 0.44438526 0.038090173 1.3425465
0.74189174 -0.826157 -0.4689225 -1.8335183 -0.677838 -0.23081774 0.15142812 -1.8869829
0.62269247 -0.051261794 0.42680526 1.4073691 0.24823917 -2.234587 1.2381891 0.4880094
-0.093775995 0.67047936 0.10217303 -2.0464156 0.28415558 0.5101703 0.83300847 -0.16396987
-0.49519882 -0.20060453 0.42801046 -1.1418663 0.1849153 -0.6104766 0.1927394 0.55163366
-0.18909091 -0.10385753 -0.11497383 -0.1405235 0.14803168 -0.0748762 -0.1615308 0.19311826
-0.07935698 0.1234176 -0.16053599 -0.019506428 -0.16635832 0.0994262 -0.1438978 0.026885407
0.10276031 -0.15772122 -0.15671594 -0.14071387 -0.09048264 0.1534756 -0.1257622 -0.22670041
0.08895203 0.017241819 -0.0571302 -0.13269751 -0.12336144 -0.15906106 0.06975606 -0.049774144
0.07287836 0.02632831 -0.028365254 -0.20717382 0.13715784 0.10693279 -0.026229097 0.07524423
-0.16062015 -0.114322156 -0.10465081 -0.014384717 -0.090945 -0.20737153 -0.01150107 -0.13343364
0.08813675 -0.14104506 -0.1260169 0.07266371 0.016937891 -0.098032124 -0.0743992 -0.14990088
-0.114706285 -0.22985125 -0.31199542 -0.11954845 -0.22225142 -0.037089948 -0.16912827 0.06751691
-0.5158409 0.64897853 1.3486502 0.68776226 -0.1340783 -2.056911 0.8344774 1.180622
0.714592 1.9300705 0.1955893 0.8551585 2.1411874 1.143767 -1.3411437 -0.8172541
0.65221846 0.2744077 1.2965186 -0.2772146 0.7865033 0.9085142 -0.8185761 -0.89240247
-1.2320983 -0.04446883 -0.5446401 1.9207822 1.1540414 0.6515577 0.0644156 0.6150668
0.10257393 -0.0016999799 0.052088443 -0.20951176 -0.056662824 -0.020865852 -0.0827872 -0.13169189
-0.24269052 -0.0077207778 -0.060550828 -0.012319742 -0.16129026 -0.11666027 -0.071427494 0.011911568
-0.20718408 0.008752188 0.06578997 -0.2349278 0.027053794 -0.018437779 0.09776772 -0.22700132
-0.16487445 0.051523104 -0.20508577 -0.09417529 -0.14662254 0.052399676 -0.12805201 -0.0661513
-0.2888432 1.2353274 0.93145096 0.5778951 -0.053600363 -3.0256236 0.8098833 1.2845203
0.64653236 2.3040094 0.33919832 0.021886991 1.723321 0.90321124 -0.7535715 -0.3831569
0.8117147 0.31686467 0.5692697 -0.19090869 0.27187654 0.82428366 -0.9514088 -1.184352
-0.5828332 -0.36379176 -1.0087135 1.84562 0.49893767 0.6911978 -0.090220876 0.73805857
00000000: e1dc e53f 5369 9b3f 892c 623e fec6 4bbf
00000010: 7a08 9fbf 7c39 21c0 ee29 7d3f 568f 263f
00000020: ae1d 1f3f 8967 0840 2d60 2f3e ec34 f83c
00000030: 838c a33f 5189 c0be e909 00be 092a 8d3e
00000040: d46f fe3e 6913 453f e5bc 823f 5423 babf
00000050: 789b 143e 10e0 743f e792 44bf d847 afbe
00000060: cf1d 6f3d 6de1 2dbd 7436 6cbe e72d ca3f
00000070: db46 473f 3b82 703f 65b1 54bd 11a2 c23e
00000080: b606 cc3f a5a0 503f 5e62 e63e 58d8 67bf
00000090: 69e7 c5bf 7cf3 7cbf 08d8 943f 308c 643f
000000a0: 5ecc 643f 038a a13f c2bf a73e eb73 cb3e
000000b0: 8440 f13f 6a90 81bf d520 cbbe 1120 72be
000000c0: 93c6 583f 3f62 b53f 1de3 4d3f 10fd a3bf
000000d0: 7380 6d3e f20b 4f3f a987 ba3e 1bb0 ba3e
000000e0: 7a8a 99be 1398 243f 6543 013f dd51 873f
000000f0: 5da7 393f 7786 e33e 7104 1c3d 90d8 ab3f
00000100: 9eec 3d3f 067f 53bf 9c16 f0be bab0 eabf
00000110: cb86 2dbf 7c5b 6cbe f90f 1b3e a888 f1bf
00000120: c668 1f3f e3f7 51bd 3886 da3e ac24 b43f
00000130: 6932 7e3e 7903 0fc0 fb7c 9e3f 5edc f93e
00000140: a10d c0bd 89a4 2b3f 1840 d13d 79f8 02c0
00000150: d77c 913e 859a 023f 0b40 553f b8e7 27be
00000160: b38a fdbe 466b 4dbe 3024 db3e ad28 92bf
00000170: 705a 3d3e 3248 1cbf 7a5d 453e dd37 0d3f
00000180: 0ca1 41be 42b3 d4bd 6677 ebbd 64e5 0fbe
00000190: 9e95 173e b158 99bd 5468 25be cbc0 453e
000001a0: ea85 a2bd 5ec2 fc3d 8c63 24be f2cb 9fbc
000001b0: d659 2abe f79f cb3d f259 13be c93e dc3c
000001c0: ff73 d23d ac81 21be 257a 20be 4c17 10be
000001d0: f64e b9bd b528 1d3e cec7 00be 2724 68be
000001e0: 7b2c b63d b73e 8d3c 5b01 6abd dbe1 07be
000001f0: eca4 fcbd e7e0 22be 44dc 8e3d f9df 4bbd
00000200: 4041 953d 78ae d73c 405e e8bc 6025 54be
00000210: 1b73 0c3e 94ff da3d 67de d6bc a619 9a3d
00000220: 9c79 24be bc21 eabd 2a53 d6bd e0ad 6bbc
00000230: 5f41 babd 3459 54be fc6e 3cbc d4a2 08be
00000240: 0a81 b43d 1e6e 10be 930a 01be b6d0 943d
00000250: 55c1 8a3c 11c5 c8bd 9c5e 98bd 9e7f 19be
00000260: 21eb eabd 205e 6bbe ddbd 9fbe d1d5 f4bd
00000270: e095 63be a1eb 17bd f62f 2dbe 4e46 8a3d
00000280: 260e 04bf 7523 263f 92a0 ac3f 3011 303f
00000290: d24b 09be 6ea4 03c0 50a0 553f 9f1e 973f
000002a0: 80ef 363f 8d0c f73f 9048 483e abeb 5a3f
000002b0: 3709 0940 f566 923f 99aa abbf 9137 51bf
000002c0: caf7 263f 2b7f 8c3e 52f4 a53f 12ef 8dbe
000002d0: 4858 493f 6394 683f 348e 51bf 7d74 64bf
000002e0: 66b5 9dbf f324 36bd 896d 0bbf 31dc f53f
000002f0: a1b7 933f 7ccc 263f 53ec 833d 0575 1d3f
00000300: 4812 d23d dcd1 deba b15a 553d 408a 56be
00000310: 4717 68bd ddee aabc 568c a9bd 3dda 06be
00000320: dd83 78be 94fe fcbb 2504 78bd bed8 49bc
00000330: 4629 25be 94eb eebd 9448 92bd bd28 433c
00000340: 1028 54be 5665 0f3c e4bc 863d ea90 70be
00000350: eb9f dd3c d30a 97bc 713a c83d 0973 68be
00000360: d9d4 28be e409 533d 0102 52be f9de c0bd
00000370: 3824 16be 0ba1 563d 1120 03be 557a 87bd
00000380: 42e3 93be 351f 9e3f 9273 6e3f eff0 133f
00000390: 0e8c 5bbd d1a3 41c0 8354 4f3f 296b a43f
000003a0: 2583 253f e474 1340 67ab ad3e 594c b33c
000003b0: c895 dc3f da38 673f 10ea 40bf 242d c4be
000003c0: 89cc 4f3f 163c a23e a9bb 113f 917d 43be
000003d0: 6733 8b3e 4104 533f 878f 73bf d998 97bf
000003e0: 8e34 15bf ea42 babe 861d 81bf 473d ec3f
000003f0: c274 ff3e 57f2 303f b9c5 b8bd 68f1 3c3f

bias f4 [32]
-0.24579097 0.2356457 0.3738521 0.12283999 -0.27784306 -1.3203919 0.022366608 -1.2000381
-0.14751989 -0.04061882 0.35839036 -1.2589216 -1.4503521 1.5492893 -0.6031704 -0.043812428
-0.32378098 -0.36155015 -0.88873667 -1.1611761 0.07309685 -0.005250107 -0.9401886 -0.38810846
-1.2379509 -1.2880781 -1.1120499 -0.7258145 -0.36046302 -0.019390978 1.5843351 -0.06927667
00000000: a1b0 7bbe 1b4d 713e 8b69 bf3e 8893 fb3d
00000010: 7241 8ebe 9a02 a9bf 2d3a b73c d99a 99bf
00000020: 740f 17be eb5f 26bd f17e b73e 5824 a1bf
00000030: 23a5 b9bf 1d4f c63f 6069 1abf a974 33bd
00000040: 9fc6 a5be 1a1d b9be 3f84 63bf 6ba1 94bf
00000050: cdb3 953d 1709 acbb 33b0 70bf 27b6 c6be
00000060: 2d75 9ebf bedf a4bf a757 8ebf fbce 39bf
00000070: 9c8e b8be d4d9 9ebc 7ecb ca3f ede0 8dbd

weight f4 [4, 32]
-1.0166777 -0.82221174 -0.9253821 0.09373169 0.028719027 -1.1554322 0.00019316019 -1.2754567
0.016964337 -1.3601745 -1.2790349 -1.6493068 -1.1954665 1.8766285 2.2542853 0.188055
-0.9466473 2.2132938 -0.84421265 -0.8326749 0.11268702 -0.89944834 -0.95286846 -1.696054
-1.0633734 -1.1294898 -1.2117155 -1.1788769 1.8341916 -1.1544117 1.3550509 -0.031357944
-0.8719605 -1.110333 -0.64174557 0.16053756 0.03544187 -0.881724 0.064453565 -2.0442433
-0.06471158 -1.2176529 -1.1916429 -2.0571268 -1.598385 1.594342 2.44388 -0.0062385174
-0.94801027 2.487323 -1.912469 -1.3830732 0.1205974 -1.3722209 -0.8491063 -0.84743196
-1.707711 -1.0882703 -1.0058196 -0.8323144 1.9546324 -1.3663933 1.5771192 -0.117569685
-1.4356356 -0.5490732 -1.577501 -0.067359 0.21045227 -2.1707785 0.11118269 -1.0967705
0.08658445 -1.9785401 -0.3890338 -1.0384333 -1.4889522 1.2146409 2.1858852 0.09322506
-0.8964878 2.128203 -2.0540612 -1.7083647 0.12909067 -0.12278003 -1.8651654 -0.116328485
-1.3027111 -2.1051922 -0.50202686 -1.8273523 2.1880755 -1.3232187 1.8770306 0.1759588
-0.82613957 -0.69559675 -1.1697524 0.020552253 -0.06857835 -1.6792508 0.1139531 -0.94231206
0.11460534 -1.5492806 -1.3277233 -1.3083589 -1.3641504 2.078577 2.0400865 -0.093004026
-0.98346746 1.976288 -1.1126902 -1.2120973 -0.08475001 -0.6152754 -1.5322641 -1.446225
-1.2227782 -1.9740459 -2.1666374 -1.3639783 1.7533683 -1.0338142 1.2042798 -0.15846996
00000000: 7f22 82bf 787c 52bf d7e5 6cbf 66f6 bf3d
00000010: 2a44 eb3c 34e5 93bf 0b8b 4a39 2a42 a3bf
00000020: cbf8 8a3c 331a aebf 6ab7 a3bf 7c1c d3bf
00000030: 0c05 99bf 5d35 f03f 3646 1040 7d91 403e
00000040: 7a57 72bf 9ba6 0d40 521e 58bf 2f2a 55bf
00000050: 74c8 e63d 3f42 66bf 30ef 73bf 4c18 d9bf
00000060: 9f1c 88bf 1f93 90bf 7e19 9bbf 70e5 96bf
00000070: cac6 ea3f c3c3 93bf 4f72 ad3f 3071 00bd
00000080: ce38 5fbf 641f 8ebf 7049 24bf f563 243e
00000090: 7f2b 113d aab8 61bf 3b00 843d e2d4 02c0
000000a0: 8187 84bd 0ddc 9bbf c187 98bf f7a7 03c0
000000b0: e197 ccbf 6613 cc3f 8868 1c40 7a6c ccbb
000000c0: cdb0 72bf 4d30 1f40 c9cb f4bf 8b08 b1bf
000000d0: c5fb f63d efa4 afbf 085f 59bf 4df1 58bf
000000e0: 4696 dabf 714c 8bbf b2be 80bf 8e12 55bf
000000f0: 6531 fa3f fae5 aebf 0bdf c93f 60c8 f0bd
00000100: e8c2 b7bf 1090 0cbf 8eeb c9bf 84f3 89bd
00000110: cd80 573e 09ee 0ac0 c0b3 e33d fa62 8cbf
00000120: 3053 b13d cd40 fdbf 702f c7be 62eb 84bf
00000130: fc95 bebf 5a79 9b3f 8be5 0b40 c8ec be3d
00000140: 3980 65bf 7a34 0840 bd75 03c0 b2ab dabf
00000150: 5830 043e 1974 fbbd bdbd eebf a13d eebd
00000160: 3dbf a6bf 78bb 06c0 d584 00bf aee6 e9bf
00000170: 6e09 0c40 3b5f a9bf 8a42 f03f 8b2e 343e
00000180: e27d 53bf a112 32bf 72ba 95bf 335d a83c
00000190: ce72 8cbd b1f1 d6bf 3e60 e93d 5d3b 71bf
000001a0: 34b6 ea3d d44e c6bf d6f2 a9bf 4e78 a7bf
000001b0: 7b9c aebf 6807 0540 c790 0240 e578 bebd
000001c0: 86c4 7bbf 01f7 fc3f a26c 8ebf 0126 9bbf
000001d0: 6a91 adbd b082 1dbf 3b21 c4bf e71d b9bf
000001e0: ff83 9cbf 89ad fcbf 30aa 0ac0 d796 aebf
000001f0: 5f6e e03f 0654 84bf d725 9a3f f345 22be

bias f4 [4]
0.29701227 0.2607912 0.5396154 0.36171582
00000000: fe11 983e 6d86 853e 3c24 0a3f d132 b93e
