Lab2/problem 1/neural-network-1.pth (torch, 8634 bytes, 6 tensors)

input_layer.weight f4 [32, 8]
00000000: 8623 9dbe 40b2 2cbe 7c75 1abf 9f56 eb3e
00000010: a523 f4bf f89d 2e3f 3c64 813f f875 563f
00000020: 54d1 073f 15a9 58be ba4f 1640 9a26 88bf
00000030: 7c35 033f d63e 33bf a823 723e dd0e 35be
00000040: 2fc0 9e3e 3a68 93be 5e58 fa3e a941 fdbe
00000050: 05f8 8abf bdb4 b2bf 9583 bd3e af69 183f
00000060: 5997 123e f059 ac3f 8c12 c83d d3b3 0ec0
00000070: 2972 b43f 335e 493f 0a6e a2be ec5a 98bf
00000080: aa38 cebc 6ec0 f03d d9d0 063f 31b9 943f
00000090: 0329 0f3f b200 e23f eaab d23f 36fa 0f3e
000000a0: cccf 083e 6af0 813e 98da 1d3f 82b6 2f3f
000000b0: aa27 0140 5ec4 7e3e 4d30 463e 1389 6b3f
000000c0: dbc4 c93d a685 2840 c291 11bf a90a f8bf
000000d0: abf1 e33d 9535 6ebf 7b98 d7be 0c16 b5be
000000e0: 810b 6dbd 0b89 84be 541a 343f 735f e03e
000000f0: 3c0b 32bf 620c 15c0 f9fa a43e f2f7 903f
00000100: 7afa 14bf 9dcd cbbe b012 27bf be57 02be
00000110: d17a bf3f 831e c63f 87ba e7be 6710 743e
00000120: 0972 c9be bddc 6dbe c31d a83e 2b1b 9e3b
00000130: fa8b b5be 9644 ee3f 4be7 7a3f 68c7 89be
00000140: 6b72 c63d bd1c 12bf f2e3 553f 8c29 debf
00000150: 0bbb 593d 0197 eebe ce8d 34be b49a a0be
00000160: 86e3 18bd d057 893e ef3a 0440 b3a8 643f
00000170: 53b7 f1be 844f b93f 9021 3e3e eda0 69bf
00000180: b0c3 3a3e ebf8 ffbe d049 a33d 4562 fabf
00000190: b42f d83e 4ba0 4ebf 9bec 8b3e 5126 85be
000001a0: 227f 5dbf 7ea5 e1be e100 98bf e6ee 95be
000001b0: f324 5a3f 1f84 573f c6bd 0d3f 9a8b 12bf
000001c0: 68bd 843d 3afe 01bf bdda a93e d143 bcbf
000001d0: fdde 903e 7ab8 22bf 732e fbbc 1829 1bbf
000001e0: 6172 983e 6dd9 913f 615d 48be f80c b5be
000001f0: d5ef 99bf 986b 8b3d 2be6 973e 9c19 bebf
00000200: 52cb 9e3d 54d4 f7be 522e bfbe bdec 5ebf
00000210: 5121 253f fdc4 42bf 5d44 e03e 495c 8dbf
00000220: a25b be3d 597e cf3f 3673 3ebe 849f a5be
00000230: fc5c 283f 7e48 ecbe 2b79 95be b428 32bf
00000240: e911 833d 8fa9 603f eb9f 8e3d 7390 0dc0
00000250: c05e 3ebf 29e8 343f fada b3be 3e4c 3cbf
00000260: b8e2 de3d 2345 5dbd 7daf 02bd 3011 3cbf
00000270: 58d0 3bbf 66e6 0ac0 624d b4bf b51b 293e
00000280: ebf1 3a3d 6590 30bf c814 02be 795a 82bf
00000290: 29b5 843f 27ba ef3e 2946 8e3f 7e0a 44be
000002a0: 2db9 96bd a600 f53e 6438 b33f 1fa1 19bf
000002b0: 78f8 06c0 8a65 fdbd e631 8d3d 58d3 edbe
000002c0: fc7e 6d3e abe1 a73e ecae bf3f b0b9 88be
000002d0: 9409 c8be dd13 383f 47c1 2c3f 566c 68bf
000002e0: 734b ac3f a716 cabd c9ba c53f c496 5dbf
000002f0: 354b a5bf 0e33 33bf c1db fe3e 6ab1 413f
00000300: 71ec 923f 1511 02bf ad6b d6be 4e53 a2bd
00000310: ca5b f63f a522 d9be 42dc b53d 7fd6 b6bd
00000320: d255 f7be b349 65be 7104 c43f 1449 7cbf
00000330: 4c8c 5e3f 9247 26bf a630 c23e 0426 f0be
00000340: 0c24 bcbe 7921 1a3f 1ee6 28bf 54b0 5dbf
00000350: 6d56 933f d76e 09bd 4bfe 93bf e5a1 8f3e
00000360: 9dc1 103f a161 7c3f 9f7f 303f 3682 cc3f
00000370: 4a92 d73e c636 08bf 2b2e 20bf fab5 0b3f
00000380: 817a 5c3f ebc6 9bbd f153 453f ca5f 4abe
00000390: 1c06 ce3f 51b3 b13f e6be 933f ae7b 413e
000003a0: c6ed 733e 4153 673f 8474 4f3e 9d31 05c0
000003b0: 33f1 1dbf 5342 b2bf 2691 41be 0021 29bf
000003c0: 364f 563e 8382 063e fd1e a53f 00d7 babe
000003d0: bf79 edbf 8461 a5bf 3d7d 07c0 fdac 83be
000003e0: 8f5a 7d3f 8b07 313f dc2e 5ebd e7da 3abf
000003f0: 1bae 6cbf 045a cf3e e616 f8be 8107 783f
-0.30691165 -0.16864872 -0.60335517 0.45964524 -1.9073378 0.6820979 1.0108714 0.83773756
0.53053784 -0.2115825 2.3486161 -1.063678 0.51253486 -0.70017755 0.23646414 -0.17681451
0.31006 -0.28790456 0.48895544 -0.49464157 -1.085694 -1.3961407 0.37014452 0.5953626
0.14315547 1.3464947 0.097691625 -2.2297256 1.4097339 0.7865936 -0.31724578 -1.1902747
-0.025173504 0.11755453 0.52662426 1.1619016 0.55921954 1.7656462 1.6458714 0.14060292
0.13360518 0.25378734 0.6166167 0.6863786 2.018046 0.24879596 0.19354363 0.92006034
0.09852 2.6331573 -0.56863034 -1.9378253 0.11130079 -0.9305051 -0.4210852 -0.35368383
-0.0578723 -0.25885805 0.70352674 0.43822822 -0.6954839 -2.3288808 0.32222727 1.1325667
-0.58194697 -0.39805308 -0.6526289 -0.12728783 1.4959356 1.5478061 -0.45259497 0.23834382
-0.39344814 -0.23228736 0.32835206 0.004825016 -0.35458356 1.8614681 0.98009175 -0.26909947
0.09689792 -0.570751 0.8355094 -1.7356429 0.053156894 -0.46599582 -0.17632219 -0.3136803
-0.03732636 0.26824808 2.066097 0.89319915 -0.47210178 1.4477391 0.1856749 -0.9126118
0.18238711 -0.49994597 0.07973063 -1.956124 0.42223895 -0.8071334 0.27328953 -0.26005796
-0.86522114 -0.44071573 -1.1875268 -0.29283828 0.8521263 0.84185976 0.55367696 -0.57244265
0.06481439 -0.50778544 0.33174697 -1.4708196 0.28295127 -0.6356274 -0.030661797 -0.6060958
0.29774764 1.1394478 -0.19566871 -0.35361457 -1.2026316 0.06807631 0.29667792 -1.4851565
0.07753624 -0.4840418 -0.37340027 -0.87079984 0.6450396 -0.7608183 0.43802157 -1.1043788
0.09294821 1.6210433 -0.18598637 -0.32348263 0.6576688 -0.46149057 -0.29194006 -0.6959336
0.063999005 0.87758726 0.06964096 -2.2119415 -0.7436333 0.7066675 -0.35128003 -0.73553836
0.10883087 -0.054021012 -0.03190564 -0.73463726 -0.7336478 -2.1703124 -1.4086115 0.16514476
0.045640867 -0.6897033 -0.1270324 -1.018386 1.0367786 0.4682171 1.1115161 -0.19144627
-0.07359538 0.47852057 1.4001584 -0.60011476 -2.1089153 -0.12372883 0.06894283 -0.46450305
0.23192972 0.32789358 1.4975257 -0.26704168 -0.39069808 0.7190531 0.6748242 -0.9079031
1.3460525 -0.09867602 1.5447627 -0.86558175 -1.2913576 -0.6999978 0.49777034 0.7566134
1.1478406 -0.50807315 -0.41879025 -0.07926045 1.9246762 -0.42409244 0.088799015 -0.08927631
-0.48307663 -0.22391395 1.5313855 -0.9854901 0.86932826 -0.6495296 0.3792774 -0.46904004
-0.36746252 0.60207325 -0.6597613 -0.8659718 1.151075 -0.03355297 -1.1561979 0.28053203
0.5654543 0.9858647 0.68944734 1.5977237 0.42103797 -0.5320858 -0.62570447 0.5457455
0.86124426 -0.076063 0.7708121 -0.19763103 1.6095614 1.3882848 1.1542633 0.18894836
0.23821172 0.9036141 0.20259291 -2.0811532 -0.61696166 -1.392649 -0.18903026 -0.6606598
0.20928654 0.13135724 1.2900082 -0.36492157 -1.8552779 -1.2920384 -2.117019 -0.25717917
0.98966306 0.69152135 -0.054243907 -0.7299027 -0.92453164 0.40498364 -0.4845497 0.9688645

input_layer.bias f4 [32]
00000000: 1574 533e 2f61 5e3e ba1f 1a3f ea2c fa3d
00000010: 16b3 583e d4b5 23be db5e bc3d 5159 8a3e
00000020: b207 13bf c901 ef3e d3ab 3e3f ace4 393f
00000030: 6012 303f eb9d f8bd 5292 2b3f 6ca9 99be
00000040: abe5 283f a6ca 81be ddf4 653e 5659 063f
00000050: 4b1b 7fbe b77a b23d 4847 973c 8e53 30be
00000060: cd2d 083f 36b1 213e c370 f33e faf0 2f3f
00000070: 94e4 0fbd 0329 a13e dfe8 96be e95f fd3d
0.2064975 0.2171676 0.6020466 0.12215598 0.21162066 -0.1598733 0.0919778 0.27021268
-0.5743362 0.4668105 0.7448093 0.7261455 0.6877804 -0.121394955 0.6702014 -0.3001207
0.65975446 -0.2534992 0.22456689 0.52480066 -0.24912755 0.08714812 0.018466607 -0.17219374
0.53194886 0.15790257 0.47546968 0.68727076 -0.0351301 0.31476602 -0.29474542 0.12371809

hidden_layer.weight f4 [32, 32]
00000000: 8d05 2a3f 1ee1 5e3e e221 8d3e 6daf 76be
00000010: 3979 1bbf 86aa 9b3e a9a2 6bbf eb9d cfbe
00000020: c019 90bd faa5 ed3e cd9b 423f 2b78 5bbe
00000030: 31dd dd3e 461e 39be 4ef2 0b3f 738d f03d
00000040: d13a 463e 54f4 eabe 6d1c 35be fdb6 743e
00000050: d30d dc3e 6825 acbc 7736 6fbf 0021 22be
00000060: ead3 40bd 3e26 d0be 8cbf 73be 35b0 86bf
00000070: 32b0 643e 3295 bfbe 0e74 7ebf 1c44 883e
00000080: a867 603d 4996 dcbe 1573 f93e 9a1f 8d3e
00000090: 43dc 91be cc0f f7bd 73e3 2d3d 6b41 4bbc
000000a0: ca1b 9dbe 3cb4 c33e d330 393e 7a64 15bf
000000b0: 8bd2 4b3e dfc2 903e 98a7 7e3e b71e f53e
000000c0: b6d8 3d3e 847d a1bd c17e dd3e 061e 863e
000000d0: bbf3 d33c b4fe eabe ae90 a33e 42df 4f3d
000000e0: 5887 27bd 2757 3cbd d3d0 9a3e d013 75bf
000000f0: ba93 063e db97 0d3e bec2 00bf cc2f 1e3f
00000100: 9200 74bc a295 7cbd 47e1 293d 7d8b 803d
00000110: 5988 0ebe 80db 87bc 59e1 72bc 2f31 863d
00000120: 143e 683c 7498 b23d 0c2c 0bbe 46ca 68bd
00000130: 7dab ecbd acd8 0cbe b17a 97bd 8825 f4bd
00000140: e380 f13d 75c4 263e ff6a 1dbe 02af 24be
00000150: f47c 1cbe b53b afbd eca8 05bd 85c1 31be
00000160: a3a2 3dbe d3c8 df3c e2ca 0dbd 286f 96bd
00000170: 8623 4c3d 6a54 a53d b477 f1bd 1145 00be
00000180: 387c c13f 3387 8b3f 143d 1ebe 516a f43c
00000190: d1b0 afbe 663d 813f 6736 ba3d aa3a d9be
000001a0: dfa9 2dbf 0d5a 09bf 1f9a 983f c923 b83f
000001b0: ac91 9a3f e35d d6be fa07 9f3f 6b2e 983f
000001c0: 1f97 4d3f 3d81 c23f c892 92be ddfe eebe
000001d0: b4ee 15bf 67da 863f 7abb 5cbe 002c 46bd
000001e0: 9e46 7a3f 5244 743f 3d49 4fbe 33ca 863d
000001f0: fd3b 2bbf 90da a6be 92ea a23e 3f82 373f
00000200: ae58 b43f 204d 2c3f 12ea febe d903 183f
00000210: cb38 36c0 a807 1840 31d7 173e 6a87 44be
00000220: 6f76 183e afe4 d6bf c9b8 bd3e 956c ef3e
00000230: a664 813f 895d 38bf 2d2f 0c3f b483 903f
00000240: 5882 1c3e a4d6 b63f a51e 043d 7356 dfbd
00000250: 626d fbbf d7df 123f 6bf3 7dbe 934a b5be
00000260: b999 1c3e af98 1f3f 3da3 4b3d d964 303e
00000270: 54f3 66bf 3891 bc3e 6d8c 8c3e 8c37 b73e
00000280: f270 18be 17e3 ae3d 4ec0 9cbd 0410 943d
00000290: 2f7c 57be a0a9 c7bd 989f 2fbe 4e4c 50bd
000002a0: 985e ca3d 2fe7 2c3d 9551 8abd da6b eabc
000002b0: d64e 603d d293 31bd 196b 5b3d 6a32 b83d
000002c0: 23f9 4fbe ad12 6bbd 3df2 2fbe c1b5 0ebe
000002d0: 6c4c cebd c044 d7bd ac9e e9bd 3c6d 12bc
000002e0: 0b44 b7bd 1ccd a23d 4d82 58bd 0518 fdbd
000002f0: 45f1 943d b4ef 8ebd 6f2d 29be a5d9 1cbd
00000300: 376b 0cbf 5402 ca3e f5c9 d9be 8ff7 5f3e
00000310: 8306 6abe fafb 093e 551e 773e 827d e6bf
00000320: 99af dbbe b350 863e 4bd9 c03e a0d1 2b3e
00000330: 9b17 dd3e da85 32bf f10b 893e 7295 0d3f
00000340: 392b 223f 65ee 0b3f aed0 c23d d0a9 33c0
00000350: 377e cabe ecf1 f13d 9c17 aebe a46d cebe
00000360: 8f6b e13e 71d3 363f cfea 123f e9de 45bf
00000370: 0e2b cabe ea6a 193e 243e 203d 2985 813e
00000380: 63d6 a93f c919 b9bf 0b2d 453e 6d3b 30c0
00000390: 30ad 32be d835 363e 6336 b1be 09fa 21bf
000003a0: 5e19 9f3d 64f2 1e3e c47f d63e afb8 7d3f
000003b0: 058a 863e 866b 3b3e 8eb3 bc3e 8bc9 e53f
000003c0: e3db 533e 8448 1840 3feb b1bf c3ab 2bbf
000003d0: a6ac 5d3e 3823 0d3d 1491 c3bf 9e3b d0bd
000003e0: d021 aa3e af55 08bf f543 593d bcd8 8f3f
000003f0: 5417 403a 7583 8cbf b66c b4bf e866 9b3e
0.6641472 0.21765563 0.27564913 -0.24090357 -0.60731846 0.30403537 -0.92045075 -0.4055017
-0.070361614 0.46415693 0.76018983 -0.21432559 0.43332818 -0.18077955 0.546666 0.11745729
0.19358374 -0.45889533 -0.17686625 0.2389793 0.42979297 -0.02101393 -0.9344248 -0.15832901
-0.047077097 -0.40654176 -0.23803538 -1.0522524 0.22332838 -0.37418514 -0.99395835 0.26614463
0.054786354 -0.43083408 0.48720613 0.27563173 -0.2848836 -0.1206356 0.04245324 -0.012405734
-0.30685264 0.38223445 0.18085031 -0.5835644 0.19904535 0.28273675 0.2486862 0.47874996
0.185397 -0.07885268 0.43260768 0.2619478 0.025873056 -0.45897448 0.3194632 0.050750025
-0.04090056 -0.045981552 0.30237445 -0.95733356 0.1314229 0.1382746 -0.50297153 0.6179168
-0.014892714 -0.06166614 0.041474607 0.06276605 -0.139192 -0.016584158 -0.014824235 0.0655235
0.014174957 0.087204844 -0.13591021 -0.056833528 -0.11556146 -0.13754529 -0.073964484 -0.11921221
0.11792161 0.1628588 -0.15372847 -0.16082385 -0.15282041 -0.0855631 -0.0326318 -0.17358978
-0.18519072 0.02731744 -0.034617312 -0.0734542 0.049838565 0.08072741 -0.1179041 -0.12526347
1.5116034 1.0900635 -0.15452987 0.029835852 -0.34314588 1.0096862 0.09092408 -0.4242757
-0.6783733 -0.5365303 1.1922034 1.4385921 1.2075706 -0.41868505 1.2424309 1.1889166
0.8030872 1.519569 -0.2862761 -0.4667882 -0.5856736 1.0535401 -0.21555892 -0.048381805
0.97764003 0.9541675 -0.20242782 0.06581535 -0.6688841 -0.32588625 0.31819588 0.71683115
1.4089563 0.67305183 -0.49787956 0.5938087 -2.8472164 2.3754673 0.14828183 -0.19192281
0.14888929 -1.6788539 0.37055042 0.4676253 1.010884 -0.72017723 0.54759485 1.1290193
0.15284097 1.4284253 0.032255787 -0.10905161 -1.9642756 0.573728 -0.24799888 -0.35408458
0.15293016 0.6234235 0.049716223 0.1722597 -0.9021504 0.36829543 0.27450886 0.35784566
-0.14886835 0.08539408 -0.07653867 0.07229617 -0.21043466 -0.0974915 -0.17150724 -0.05085402
0.098813236 0.04221266 -0.06753842 -0.02861588 0.054762684 -0.043353863 0.053568933 0.08993991
-0.20309882 -0.057390857 -0.1718225 -0.13936521 -0.1007317 -0.1051116 -0.114072174 -0.008937176
-0.08948525 0.07949278 -0.05285864 -0.12358097 0.07272581 -0.069793135 -0.16521238 -0.0382935
-0.54851097 0.394549 -0.42536893 0.2187178 -0.22854047 0.13475028 0.24132665 -1.8007052
-0.42907408 0.26233444 0.3766578 0.16779184 0.43182072 -0.6973549 0.26766923 0.5530616
0.633472 0.54660636 0.09512459 -2.8072395 -0.3954942 0.11813721 -0.34002388 -0.40318024
0.44027373 0.71416384 0.5738954 -0.7729326 -0.39485973 0.1498219 0.039121762 0.25296906
1.3268551 -1.4460994 0.19255464 -2.753627 -0.17448878 0.17793977 -0.34611806 -0.6327215
0.0776851 0.15522152 0.41894352 0.9910993 0.26277176 0.18302736 0.3685574 1.7952131
0.20689349 2.379426 -1.3899916 -0.6705896 0.21647891 0.034457415 -1.5278649 -0.10167621
0.33228922 -0.5325574 0.053043325 1.1238017 0.0007327695 -1.0977618 -1.4095676 0.3035195

hidden_layer.bias f4 [32]
00000000: 1ed4 093e cbf7 6bbc 22c8 20be 9adf d03e
00000010: e882 2bbe 27bd 1cbe 4aad 123f 28bb 413f
00000020: 2482 9a3e 2b18 023e 986f 94bc 66fe 7a3e
00000030: 2db2 96bd a155 473f a4fe c53e ded8 413d
00000040: 854e 87be 3605 6b3f f277 d93e 3d4c cf3e
00000050: 8b11 343f 0ec3 383e 87fb 00be df63 bbbd
00000060: 0202 4cbe c979 d93d 1fec fd3e 515a 043f
00000070: 523c b93d 8d21 49ba abba 083f c585 29bd
0.13459823 -0.01440234 -0.15701345 0.40795594 -0.16749156 -0.15306531 0.5729567 0.756762
0.30177414 0.12704532 -0.018119618 0.24511108 -0.07358203 0.77865034 0.38670838 0.04732596
-0.26427093 0.91804826 0.42474324 0.40487853 0.7033927 0.18043157 -0.1259595 -0.09149908
-0.19922641 0.10618932 0.4959421 0.5170031 0.09044708 -0.0007672541 0.5340983 -0.04138734

output_layer.weight f4 [4, 32]
00000000: 701a c63e a0de bfbe eba6 303e 7802 5a3f
00000010: 8823 353f 6c94 1f3e 828f 2f3f 8d5a 8a3f
00000020: 55b9 7ebf 4022 8f3f 3d31 403f 2fc9 313f
00000030: f169 153e bd81 673f 73cd 963f 5ca0 eb3f
00000040: 489f a53f 59a3 1a3f c1b3 833f acdb 153f
00000050: 93f4 983f e3aa 3cbf bf28 7abf bf5d 813f
00000060: 0a08 273f 1ec7 2cbf 2822 533f c9f9 ed3e
00000070: a8bd 55bf 283f 4abf 3ee9 1a3f aa5a 62bf
00000080: 33ab ba3d 4b37 e3be 93a9 093c 007c 3f3f
00000090: eeab 403f fb3a 34be b8ab 9bbd 6d4e 843f
000000a0: f003 8ebf 7313 8d3f d577 5e3f 612e 3a3f
000000b0: b1e0 4c3d 489b 693f 9ee4 e23f b760 ff3f
000000c0: 2405 963f ed73 c73e d878 993f 593a 1a3f
000000d0: 6c58 983f a10a 92bf 16d7 49bf 2e1e 813f
000000e0: e03d cb3e c0df 51bf 0d9b 803f b26e c0bd
000000f0: a55b 2cbf 3a31 63bf 1df4 583f e01f 29bf
00000100: b30e 813f af86 e23e 8142 afbd c9f4 323f
00000110: 3e81 7a3f a565 e03d c451 6c3f 2923 2f3f
00000120: 717b e2bf b2d2 ec3e ab4b 6e3f e0c6 4f3f
00000130: 3770 343e dcfd 883f 6333 323f 1a83 8e3f
00000140: 0043 8f3f 14a6 84bf 86ac e03f d8c7 5f3f
00000150: 334f 863f 467a 79bf f550 4abf b12f 3fbe
00000160: 022d 8e3f b9c6 7abf 7781 253f bffc 943f
00000170: 78f3 09bf 12b4 6cbf 134d a43f a311 54bf
00000180: 9952 213d 4f42 37be 5e4b 12bd c553 7f3f
00000190: e294 223f 6fd3 0dbe 6f88 c53f 8c6a ae3f
000001a0: 1bd4 83bf 07c2 2b3f 3071 693f aaf3 0b3f
000001b0: 02f9 a9bd e48c 8c3f 01a1 6b3f 9f1a 9a3f
000001c0: b718 8e3f fa7d bb3f 56ea 263f e483 343f
000001d0: fae4 583f e6c0 68bf cb0c 4cbf 0d0f 1a3f
000001e0: 1595 773f b761 2ebf 5114 2f3f 1ef2 8a3f
000001f0: d236 70bf b7c5 3abf bd67 bc3e 9cff 67bf
0.38692045 -0.37474537 0.17251174 0.85160017 0.7075734 0.15583962 0.6857835 1.0808884
-0.99501544 1.1182327 0.7507513 0.69447607 0.14591195 0.9043234 1.1781448 1.8408313
1.2939234 0.604055 1.0289232 0.5853832 1.1949638 -0.7369825 -0.97718424 1.0106734
0.6524664 -0.6749133 0.82473993 0.46479633 -0.8349252 -0.7900262 0.6051215 -0.8841959
0.09114685 -0.44378123 0.008402246 0.74798584 0.75262344 -0.17600624 -0.07601112 1.0336434
-1.1094952 1.102156 0.869016 0.7272702 0.05001897 0.91252565 1.7726018 1.995139
1.1720319 0.38955632 1.1990004 0.6024528 1.1901984 -1.1409494 -0.7884382 1.0087335
0.39695644 -0.8198204 1.0047318 -0.093961135 -0.6732734 -0.8874699 0.8474749 -0.6606426
1.0082611 0.4424338 -0.085576065 0.6990476 0.9785346 0.10956887 0.92312264 0.68413025
-1.7693921 0.46254498 0.9308421 0.81162834 0.17620932 1.0702472 0.6960966 1.1133759
1.1192322 -1.0363183 1.755265 0.8741431 1.049292 -0.974522 -0.7902978 -0.18670537
1.1107485 -0.97959477 0.6465067 1.1639632 -0.5388713 -0.92462265 1.2836021 -0.8283941
0.039385412 -0.17896388 -0.035716407 0.997372 0.6350843 -0.13850187 1.5432261 1.3626266
-1.0299104 0.6709294 0.91188335 0.54668677 -0.082994476 1.0980496 0.9204255 1.2039374
1.1101292 1.464782 0.6520132 0.7051375 0.8472439 -0.9091934 -0.7970702 0.60179216
0.96711856 -0.6811785 0.68390375 1.0855138 -0.9383365 -0.7295794 0.36797896 -0.90624404

output_layer.bias f4 [4]
00000000: f84e 063f e2cc d03e b000 1cbe aa85 e33d
0.52464247 0.40781313 -0.15234637 0.11109479
